Latest_FENet_Model.pth (torch, 6879 bytes, 14 tensors)

hpf1.weight f4 [1, 1, 40]
0	0x3d9b6673	0.075879
1	0xbbc0c7dc	-0.0058832
2	0x3eb4e05a	0.35327417
3	0x3ee4adce	0.44663852
4	0xbd749bae	-0.05971878
5	0xbed90298	-0.4238479
6	0xbe78183b	-0.24227993
7	0xbe95a324	-0.2922603
8	0xbeaaf5bc	-0.33390605
9	0xbea43ee3	-0.3207923
10	0x3e20ff5e	0.15722415
11	0xbf08b374	-0.53398824
12	0x3d36da9e	0.044642083
13	0x3c4e45ce	0.012589885
14	0xbe22bd67	-0.15892564
15	0x3e1c5d97	0.15270077
16	0x3f22f77e	0.63658893
17	0x3fa3c276	1.279372
18	0x3e9b0785	0.30279174
19	0x3ee27365	0.44228664
20	0xbc122453	-0.008919793
21	0x3eb8230f	0.35964248
22	0xbd68ada6	-0.05680623
23	0xbe4de1c5	-0.20105655
24	0x3ee0f87e	0.43939584
25	0x3eed766b	0.46379408
26	0x3ece7a25	0.40327564
27	0xbeaecef3	-0.34142265
28	0xbf0040be	-0.5009879
29	0xbfd4ff16	-1.6640346
30	0xc0088086	-2.1328444
31	0xbfd015f7	-1.6256703
32	0xbf94173e	-1.1569593
33	0xbe58d0fc	-0.21173471
34	0x3f3c5e3a	0.7358128
35	0x3d8b0e61	0.06789852
36	0x3fc4083b	1.5315012
37	0x3fda37f9	1.7048331
38	0x3f741632	0.9534637
39	0xbc94e862	-0.018177215

lpf1.weight f4 [1, 1, 40]
0	0x3f2383a9	0.6387277
1	0x3f8b3390	1.0875111
2	0x3f820ef9	1.0160819
3	0x3f88aad3	1.0677131
4	0x3fa626d9	1.2980605
5	0x3fad2adb	1.3528703
6	0x3f896858	1.0734968
7	0x3ea95433	0.3307205
8	0xbd2ddf9c	-0.04244958
9	0x3d899305	0.06717495
10	0x3e534e25	0.20635279
11	0xbe7ab74b	-0.24483983
12	0xbf1393b1	-0.57647234
13	0xbf25fe14	-0.6484082
14	0xbedf8cd0	-0.4366212
15	0xbf119d6e	-0.56880844
16	0xbf2bec5d	-0.67157537
17	0xbf19f61f	-0.60141176
18	0xbeee4261	-0.46535018
19	0xbeeb722f	-0.45985553
20	0xbf0cbed2	-0.5497867
21	0xbf0803fc	-0.5313108
22	0xbedb3ef9	-0.42821482
23	0xbed72f63	-0.4202834
24	0xbef56a8c	-0.4793285
25	0xbedce750	-0.43145227
26	0xbea54e00	-0.32286072
27	0xbebd33c7	-0.36953565
28	0xbedece2f	-0.4351668
29	0xbed36fa9	-0.41296127
30	0xbec0bc00	-0.37643433
31	0xbebb32b5	-0.36562124
32	0xbecbcc0b	-0.3980411
33	0xbeca2128	-0.3947842
34	0xbeafb674	-0.34318888
35	0xbea55bfd	-0.32296744
36	0xbe50a047	-0.20373641
37	0xbd36257a	-0.044469334
38	0xbd9abc53	-0.07555451
39	0x3d92bdbb	0.071650945

hpf2.weight f4 [1, 1, 40]
0	0xbf0b6a7a	-0.54459345
1	0xbe50a418	-0.20375097
2	0xbc42e2db	-0.011894907
3	0x3f0ecb2c	0.55778766
4	0x3dff11b9	0.12454552
5	0xbf328ee2	-0.6974927
6	0x3d8d38ca	0.06895597
7	0x3d2bf38e	0.04198032
8	0x3eac4658	0.33647418
9	0xbecc9d3b	-0.39963707
10	0xbe9c9cbd	-0.30588332
11	0x3e260910	0.16214395
12	0x3e8c7abb	0.27437386
13	0xbf031548	-0.5120435
14	0x3e231c25	0.15928705
15	0xbeac5aa0	-0.3366289
16	0xbc50aaa5	-0.012735997
17	0x3ed0813f	0.40723607
18	0x3f59bc82	0.85053265
19	0x3f84138e	1.0318468
20	0x3f97219d	1.1807133
21	0x3fa9e9ea	1.327451
22	0x3f88800b	1.0664076
23	0x3f98d311	1.1939412
24	0x3f731f53	0.9496967
25	0x3f4b8981	0.7950669
26	0x3f350edd	0.70725805
27	0x3fd7a693	1.684771
28	0x3fa2324e	1.2671602
29	0xbd89fd79	-0.06737799
30	0x3e8591df	0.26087853
31	0xbd3b7ce4	-0.0457734
32	0xbf1215da	-0.5706459
33	0xbf57bdbc	-0.84273887
34	0x3f17a179	0.5923076
35	0xbf6b85d0	-0.92001057
36	0x3e06e0f0	0.13171744
37	0xbe071ac2	-0.13193801
38	0x3e40b8e3	0.18820529
39	0x3f3e1c98	0.7426238

lpf2.weight f4 [1, 1, 40]
0	0xbf8c19b2	-1.0945342
1	0xbf9b8b44	-1.2151875
2	0x3f5628ef	0.8365621
3	0x3fa7c2b7	1.3106297
4	0x3f8e5625	1.1120039
5	0x3fb8942d	1.442022
6	0x3f9aee6c	1.210401
7	0x3e766ac1	0.24064161
8	0xbf2344c3	-0.637768
9	0xbf08d349	-0.53447396
10	0x3e120b16	0.14262041
11	0xbd851f42	-0.065001026
12	0xbf4af5cb	-0.792813
13	0xbec27146	-0.37977046
14	0xbeb2fc20	-0.3495798
15	0xbef9bbf4	-0.4877621
16	0xbf399147	-0.724873
17	0xbeef06ed	-0.4668497
18	0xbf0adea7	-0.5424599
19	0xbf1ecc1e	-0.6203021
20	0xbeaa4816	-0.33258122
21	0xbea98403	-0.3310853
22	0x3cdee896	0.027210515
23	0x3e488254	0.19580966
24	0x3f294376	0.6611856
25	0x3e1cfefb	0.15331642
26	0x3e7e5c23	0.24839835
27	0x3ebf7370	0.3739276
28	0x3ee72844	0.45147908
29	0x3e961780	0.29314804
30	0xbecbf3a7	-0.3983433
31	0x3b5f9056	0.003411313
32	0xbe9aa65c	-0.30205047
33	0xbd9d6420	-0.07685113
34	0x3e830eb4	0.25597155
35	0x3eb9dae3	0.3629981
36	0x3f46a76e	0.7759923
37	0x3f4da9e9	0.8033739
38	0x3ef90d7b	0.48643097
39	0xbcf1090e	-0.029423263

hpf3.weight f4 [1, 1, 40]
0	0xbdd13032	-0.10214271
1	0x3e3a640d	0.18202229
2	0x3cea82af	0.028626768
3	0xbe42a9b4	-0.19010049
4	0x3f969173	1.1763138
5	0xbebbc8a4	-0.36676514
6	0xbe9d9aab	-0.30782065
7	0xbe793355	-0.24335988
8	0x3ebba443	0.3664876
9	0x3f3cd92f	0.73768896
10	0x3f908ac9	1.1292354
11	0x3ee7a816	0.45245427
12	0xbe09f5ce	-0.13472673
13	0xbe2475b5	-0.16060527
14	0xbf0d2600	-0.5513611
15	0xbf4c65f2	-0.79843056
16	0xbe913c64	-0.28366387
17	0x3d0bdc60	0.034145713
18	0x3f95e61d	1.171085
19	0xbf927140	-1.1440811
20	0x3d4cf22d	0.050035644
21	0xbde32183	-0.11090376
22	0x3f89ec87	1.0775307
23	0xbd88a252	-0.06671585
24	0xbef30d8a	-0.47471267
25	0xbe35af30	-0.1774261
26	0xbed8f9ef	-0.42378184
27	0x3e9f48fa	0.31110364
28	0xbe94108c	-0.28918874
29	0xbf454024	-0.77050996
30	0x3f4c06db	0.7969796
31	0x3fb68f25	1.4262434
32	0x3d4d1b29	0.05007473
33	0xbfcc32d7	-1.5953015
34	0x3fd4a356	1.6612346
35	0xbfeed030	-1.8657284
36	0x3f104dcb	0.563687
37	0x3d169c84	0.03677036
38	0x3eae05a9	0.33988693
39	0xbe20754e	-0.15669748

lpf3.weight f4 [1, 1, 40]
0	0xbf881738	-1.0632086
1	0xbfa20e06	-1.266053
2	0xbf90cc6f	-1.1312388
3	0x3e26e92b	0.16299884
4	0x3f5eac67	0.86981815
5	0x3fe14b9e	1.7601202
6	0x3d83e94d	0.06440983
7	0xbf971be3	-1.1805385
8	0xbf99e218	-1.2022123
9	0xbee27cb3	-0.44235763
10	0x3d919feb	0.0711058
11	0xbe70a809	-0.235016
12	0xbf31fa9d	-0.6952303
13	0xbf056f06	-0.52122533
14	0x3eccc432	0.39993435
15	0x3f2feb45	0.6871837
16	0x3f3972a1	0.72440535
17	0x3f6a41bc	0.9150655
18	0x3ecd9127	0.40149805
19	0x3f252307	0.6450657
20	0x3f7b647d	0.9820021
21	0x3f2eacc8	0.68232393
22	0x3ee3b673	0.44475135
23	0x3eef7a9a	0.46773225
24	0x3ede0d5a	0.4336956
25	0xbd831b83	-0.06401732
26	0x3ead35ce	0.33830112
27	0x3ea5564e	0.32292408
28	0x3ee58479	0.4482763
29	0xbe93fac5	-0.2890226
30	0xbf405d81	-0.75142676
31	0xbf70cd8b	-0.94063634
32	0xbefbecf4	-0.49204218
33	0x3d8ffee9	0.07031042
34	0x3e2c9295	0.16852792
35	0x3ef51da9	0.4787419
36	0x3fb9e8ee	1.452421
37	0x3ef61346	0.4806158
38	0x3f1f93c0	0.62334824
39	0xbe034c19	-0.12821998

hpf4.weight f4 [1, 1, 40]
0	0xbf14af3f	-0.58079904
1	0x3f9e3d94	1.2362542
2	0x3ed1a07e	0.40942758
3	0x3eba8bf0	0.3643489
4	0xbed1d843	-0.40985307
5	0x3e0c832b	0.13721912
6	0x3f772efb	0.9655606
7	0xbfbde6aa	-1.4836018
8	0xbf8173e7	-1.0113496
9	0xbe7c22a0	-0.24622583
10	0xbf94c241	-1.1621782
11	0xbf0dab0f	-0.5533914
12	0xbe41246e	-0.18861553
13	0x3ea0f860	0.31439495
14	0x3e3d39dc	0.18479103
15	0x3ed3ca0c	0.41365087
16	0xbef78d81	-0.48350146
17	0xbf535772	-0.82555306
18	0x3f40a244	0.752476
19	0xbe3388ee	-0.17532703
20	0x3f03dfb0	0.51513195
21	0xbe9816a4	-0.29704773
22	0x3e48c13f	0.19604968
23	0xbefa8d5d	-0.48935977
24	0x3d2c8337	0.042117324
25	0xbf537459	-0.8259941
26	0xbe3798ff	-0.17929457
27	0xbf56d4cd	-0.8391846
28	0xbf0cd43f	-0.5501136
29	0xbfa0c807	-1.2561044
30	0xbf824e86	-1.0180213
31	0xbca0b0bb	-0.019615522
32	0xbf98fa8a	-1.1951458
33	0xbef16122	-0.4714442
34	0x3f55e896	0.8355802
35	0xbec4feed	-0.38475743
36	0x3f6299be	0.8851584
37	0x3faa1565	1.3287779
38	0x3ec32e5d	0.3812131
39	0xbf82c442	-1.0216143

lpf4.weight f4 [1, 1, 40]
0	0x3ee0a59a	0.43876344
1	0xbff9f61f	-1.9528235
2	0xbf264481	-0.6494828
3	0x3e9967a6	0.2996189
4	0x3ee07491	0.43838933
5	0x3e474f5b	0.19463865
6	0xbf41747a	-0.75568354
7	0xbfc51e74	-1.5399919
8	0xbeb810cc	-0.35950315
9	0xbeaa7147	-0.3328955
10	0x3fc73a79	1.556472
11	0x3fea8586	1.8321998
12	0x3f918f0f	1.1371783
13	0xbf3f5fd9	-0.74755627
14	0xbf4a7651	-0.79086787
15	0xbeb8ca63	-0.3609191
16	0xbe9bcf46	-0.30431575
17	0xbf43e8ba	-0.7652699
18	0x3f0a3fb9	0.54003483
19	0x3f268518	0.65046835
20	0xbe7e0fba	-0.24810687
21	0x3debf865	0.11521987
22	0x3ebf3a50	0.37349176
23	0x3f987745	1.1911398
24	0x3f299ea2	0.6625768
25	0x3f25578e	0.6458672
26	0x3d5156bd	0.05110811
27	0xbfb3d5f5	-1.404967
28	0xbf909dee	-1.1298196
29	0x3e53177b	0.20614426
30	0x3f5b7270	0.8572149
31	0x3e35cb2d	0.17753287
32	0xbf3a0d91	-0.7267695
33	0xbf075eb0	-0.52878857
34	0xbde3a530	-0.111154914
35	0x3f544112	0.8291179
36	0x3eb3b61b	0.35099873
37	0xbed88863	-0.42291555
38	0x3fd1983c	1.6374583
39	0xbf25aafe	-0.6471404

hpf5.weight f4 [1, 1, 40]
0	0xbd294deb	-0.041334074
1	0xbed80d88	-0.42197824
2	0xbf864803	-1.0490726
3	0x3efae220	0.49000645
4	0xbee88ee9	-0.45421532
5	0xbeb82719	-0.3596733
6	0x3fa6da8c	1.3035445
7	0xbf038230	-0.51370525
8	0xbfbbcec3	-1.4672474
9	0x3ecce7a0	0.40020466
10	0x3ef3a3bb	0.47585854
11	0xbf46302a	-0.7741724
12	0x3f4e1f2a	0.805163
13	0x3ddee1e4	0.10882929
14	0x3f9479bd	1.1599652
15	0x3c3bab1c	0.01145437
16	0xbe340c9b	-0.17582934
17	0xbe2ba803	-0.1676331
18	0xbf0f4cd4	-0.55976605
19	0x3e70dda8	0.23522055
20	0x3f1c27e0	0.60998344
21	0xbf2b0f3e	-0.6682013
22	0xbe8899fc	-0.2667998
23	0xbf3f64aa	-0.74762976
24	0xbee89e39	-0.45433214
25	0xbeeb4efc	-0.45958698
26	0xbefad8f9	-0.48993662
27	0xbf00b1f2	-0.50271523
28	0x3fb967c1	1.4484788
29	0x3f2f73e0	0.68536186
30	0xbea4d799	-0.32195738
31	0x3f59d672	0.8509284
32	0xbf2d3e69	-0.67673355
33	0xbfac14c2	-1.3443835
34	0x3fff4c97	1.9945248
35	0xbe760031	-0.2402351
36	0x3f396146	0.7241405
37	0x3e9ce806	0.3064577
38	0x3f716e5d	0.94309026
39	0xbf7e003e	-0.9921912

lpf5.weight f4 [1, 1, 40]
0	0xbf699816	-0.9124769
1	0x3f3fde52	0.7494861
2	0xbf79500c	-0.97387767
3	0xbf807d53	-1.0038246
4	0xbfb4be56	-1.4120586
5	0x3fd7d700	1.6862488
6	0xbeeefa5b	-0.4667538
7	0xbf077bec	-0.52923465
8	0x3e97d475	0.2965428
9	0x3ecc6cf1	0.39926866
10	0x3f36f1d8	0.71462774
11	0xbf354e76	-0.70822847
12	0xbf9b66aa	-1.2140706
13	0x3f985a0b	1.1902479
14	0xbf027934	-0.5096619
15	0xbe3d9a79	-0.18515958
16	0x3ec35a92	0.38155037
17	0xbecb0409	-0.39651516
18	0x3dd86fdb	0.1056821
19	0xbdbd3b2c	-0.09239802
20	0xbec05f07	-0.375725
21	0x3e8f340f	0.27969405
22	0x3caad7fe	0.020854946
23	0x3ef4a21c	0.4777993
24	0xbd472c46	-0.048626207
25	0x3cb7acdc	0.022421293
26	0x3ec73a32	0.38911587
27	0x3f9b9cce	1.2157228
28	0xbf0f6108	-0.5600743
29	0xbfbd3054	-1.4780374
30	0x3ecf069c	0.4043473
31	0xbfbaadfe	-1.4584348
32	0xbf3aeae5	-0.7301467
33	0x3f25dac4	0.64786935
34	0x3f254440	0.64557266
35	0x3f18161c	0.59408736
36	0xbfc22fd9	-1.5170852
37	0x3f7e797b	0.99404114
38	0x3f92216d	1.1416451
39	0x401bcb93	2.4343002

hpf6.weight f4 [1, 1, 40]
0	0xbed165a1	-0.4089785
1	0xbf89e524	-1.0773053
2	0x3f062a10	0.5240793
3	0x3ee2481b	0.44195637
4	0xbeadfd68	-0.33982396
5	0x3e0106a4	0.1260019
6	0x3dff8775	0.12477008
7	0xbfaff642	-1.3747027
8	0xbfa3f6f6	-1.2809741
9	0x3dda15e6	0.10648708
10	0xbdf68ebe	-0.12038945
11	0xbf7d2fb7	-0.9890093
12	0xbae164a0	-0.0017196126
13	0x3fde0173	1.7344192
14	0xbf4bbdda	-0.79586565
15	0xbd5d96ec	-0.05409901
16	0x3ebb053e	0.36527437
17	0x3f95257f	1.1652068
18	0x3f70cb98	0.9406066
19	0xbf9104b4	-1.132956
20	0x3f74bf3c	0.956043
21	0x3f81145d	1.0084339
22	0xbecf7ba8	-0.4052403
23	0xbf83b487	-1.0289468
24	0xbd72154c	-0.05910234
25	0x3e1bca07	0.15213786
26	0x3e90a637	0.28251812
27	0x3f1d2a46	0.6139263
28	0x3f59d910	0.85096836
29	0x3ebcc6bc	0.36870372
30	0x3ec308cb	0.38092646
31	0x3f828127	1.0195664
32	0x3eb09f1e	0.34496397
33	0x3ea7040b	0.32620272
34	0x3ea9d084	0.33166897
35	0xbe8ccb97	-0.27499077
36	0xbe89867d	-0.2686042
37	0xc007336d	-2.1125138
38	0x3deecfd0	0.11660731
39	0xbfd0d75d	-1.6315724

lpf6.weight f4 [1, 1, 40]
0	0xc01c18f6	-2.4390235
1	0xbf2314ec	-0.637038
2	0xbeaea21e	-0.3410806
3	0x3f149cab	0.58051556
4	0x3f43b74f	0.7645158
5	0x3ec11d5c	0.37717712
6	0xbf13391e	-0.5750903
7	0xbfffd7f2	-1.9987776
8	0xbf3ab247	-0.7292828
9	0xbef11472	-0.4708591
10	0x3edc7983	0.43061456
11	0xbf4495af	-0.767909
12	0x3e09f3bb	0.13471882
13	0x3f788bb8	0.97088194
14	0x3f00340b	0.5007941
15	0x3f46fb26	0.7772697
16	0x3f603e9b	0.8759553
17	0xbf268d1d	-0.6505907
18	0xbee76f22	-0.45201975
19	0x3de37d26	0.111078545
20	0x3ca41a80	0.020032167
21	0x3e894b07	0.26815054
22	0x3e8200d7	0.25391266
23	0xbeb0ee52	-0.34556824
24	0x3e8ed6c5	0.2789823
25	0xbe837fa4	-0.2568332
26	0xbe054dd6	-0.13017973
27	0x3e9df447	0.3085043
28	0x3ea51f1e	0.32250303
29	0x3e579ced	0.21055956
30	0xbf87bcc9	-1.0604488
31	0xbf306343	-0.6890146
32	0x3f976bd3	1.182978
33	0xbf569904	-0.83827233
34	0xbf83a337	-1.0284184
35	0x3f0bcaa5	0.54606086
36	0x4005f2fa	2.092955
37	0x3f67c56f	0.90535635
38	0x3fe52626	1.7902267
39	0x3f98a499	1.1925231

hpf7.weight f4 [1, 1, 40]
0	0x3e6a79f4	0.22898084
1	0x3f143647	0.5789532
2	0xbefa366b	-0.48869643
3	0x3d2d4afa	0.04230783
4	0xbd923825	-0.07139615
5	0xbfcbcbd3	-1.5921577
6	0xbeb0db21	-0.34542182
7	0x3fccbb58	1.5994673
8	0x3f6fa830	0.9361601
9	0x3f172417	0.59039444
10	0x3f0ec61e	0.5577105
11	0x3e973bb5	0.2953774
12	0xbf917e70	-1.1366711
13	0xbf8d56fe	-1.1042173
14	0x3ec0bdb4	0.37644732
15	0xbf463a67	-0.77432865
16	0x3ec616d7	0.386893
17	0xbedcfa70	-0.4315982
18	0x3f2e6a29	0.6813074
19	0xbf5e20f0	-0.8676901
20	0x3e18541b	0.14875834
21	0xbe4dcb2b	-0.20097034
22	0x3fa1ac78	1.2630758
23	0xbf80bce9	-1.0057651
24	0xbf209228	-0.62723017
25	0xbeb99581	-0.36246875
26	0x3faf4d42	1.3695452
27	0xbf5b80ed	-0.857436
28	0x3f5e6eb8	0.86887693
29	0x3f43903c	0.7639196
30	0xbf019ba8	-0.5062814
31	0x3fdef484	1.741837
32	0xbff15283	-1.8853306
33	0x3f3f5246	0.74734914
34	0x3f831eaa	1.0243733
35	0xbf98c11b	-1.1933931
36	0x3f4078ac	0.7518413
37	0x3b3d0043	0.0028839267
38	0xbf69e1c5	-0.9136012
39	0x3f86d6d9	1.0534316

lpf7.weight f4 [1, 1, 40]
0	0x3f87dcf2	1.0614302
1	0xbf297b20	-0.662035
2	0x3ce4d23f	0.027932284
3	0xbeef09b3	-0.46687087
4	0x400536a3	2.0814598
5	0x3e3fbd08	0.18724453
6	0xbdef5316	-0.11685769
7	0xbfa77c77	-1.3084859
8	0xbf498141	-0.7871285
9	0x3f726508	0.9468541
10	0x400c1fa1	2.1894305
11	0x3f354d93	0.70821494
12	0xbec0a7e5	-0.37628093
13	0x3d3c37f1	0.045951787
14	0x3f4849cb	0.782376
15	0x3f531ba1	0.82464033
16	0x3ecf46ac	0.40483606
17	0xbef17e89	-0.4716685
18	0x3f243e56	0.6415762
19	0x3e085225	0.13312586
20	0x3f8f4a4e	1.1194551
21	0xbf421f0f	-0.7582864
22	0x3fd9b4f5	1.7008349
23	0x3f5f37f2	0.8719474
24	0xbf56b2af	-0.838664
25	0xbf2dd5f5	-0.679046
26	0x3f7957f5	0.97399837
27	0x3fb71c7b	1.4305567
28	0xbf24d81e	-0.6439227
29	0x3e6b9d7f	0.23009299
30	0xbee0dce5	-0.4391853
31	0x3e82aa1e	0.25520414
32	0xbc9a3639	-0.018824684
33	0x3ed74288	0.42042947
34	0xbf214107	-0.6298985
35	0xbf4c45b5	-0.79793864
36	0x3fb3c996	1.4045894
37	0x3f2ea1ac	0.6821544
38	0x3f8e3021	1.1108438
39	0xbf2a42c9	-0.66508156
